…
2020-11-19 09:36:07.140380: I tensorflow/core/common_runtime/gpu/gpu_device.cc:1402] Created TensorFlow device (/job:localhost/replica:0/task:0/device:GPU:0 with 13996 MB memory) -> physical GPU (device: 0, name: Tesla T4, pci bus id: 0000:00:04.0, compute capability: 7.5)
Model: "functional_1"
_________________________________________________________________
Layer (type)                 Output Shape              Param #   
=================================================================
input_1 (InputLayer)         [(None, 230, 130, 1)]     0         
_________________________________________________________________
conv2d (Conv2D)              (None, 68, 35, 64)        46720     
_________________________________________________________________
max_pooling2d (MaxPooling2D) (None, 34, 17, 64)        0         
_________________________________________________________________
dropout (Dropout)            (None, 34, 17, 64)        0         
_________________________________________________________________
conv2d_1 (Conv2D)            (None, 32, 15, 32)        18464     
_________________________________________________________________
max_pooling2d_1 (MaxPooling2 (None, 16, 7, 32)         0         
_________________________________________________________________
dropout_1 (Dropout)          (None, 16, 7, 32)         0         
_________________________________________________________________
conv2d_2 (Conv2D)            (None, 14, 5, 16)         4624      
_________________________________________________________________
max_pooling2d_2 (MaxPooling2 (None, 7, 2, 16)          0         
_________________________________________________________________
flatten (Flatten)            (None, 224)               0         
_________________________________________________________________
dense (Dense)                (None, 32)                7200      
_________________________________________________________________
dropout_2 (Dropout)          (None, 32)                0         
_________________________________________________________________
dense_1 (Dense)              (None, 2)                 66        
=================================================================
Total params: 77,074
Trainable params: 77,074
Non-trainable params: 0
_________________________________________________________________

Ending Cell 17-----------------------------------------
Executing:  57%|██████████████████████████████████████████████████████████████████████████████████████▏                                                                 | 17/30 [00:07<00:06,  1.99cell/s]Executing Cell 18--------------------------------------
…
